5_modular/models/05_going_modular_script_mode_tinyvgg_model.pth (torch, 37090 bytes, 10 tensors)

conv_block_1.0.weight f4 [10, 3, 3, 3]
-0.13531137 -0.18224835 0.098076545 0.14890212 0.09670271 -0.0842352 -0.16870655 0.13527782
0.13055855 -0.09405345 -0.12718257 0.02341714 -0.023968615 -0.14570008 0.13349296 -0.15333055
-0.17974362 0.13643132 -0.04440358 0.0536458 0.04930494 -0.045288138 0.09109215 -0.0059480052
0.13950281 -0.008071189 0.111179836 0.13912857 -0.07012781 0.11892385 -0.11627676 -0.010299068
0.09019761 -0.14055182 0.17028944 0.12346808 -0.17967951 0.09013117 0.05309367 -0.0087473765
0.045236602 0.15960695 -0.040591598 0.04845973 -0.024392277 -0.10242797 -0.16689493 0.15372531
-0.13437241 -0.093097486 -0.020177037 -0.1638659 0.16246739 -0.063872196 0.14771256 0.18884072
-0.120710894 0.034536622 0.06952043 0.02517987 -0.065615594 -0.007947443 -0.044850085 -0.11491272
-0.13456693 0.17435373 -0.002449138 0.17904097 -0.066977955 0.097241774 0.20170626 0.07978143
-0.05825289 -0.06837737 0.15403426 0.20568714 0.10460917 -0.066328086 0.18225352 0.13858172
0.13113359 -0.062156454 0.07219475 -0.07467228 0.1570713 0.10453447 -0.16068739 -0.08959615
0.09032184 -0.012434751 0.14289054 0.11025556 -0.13543211 0.119820885 -0.18907134 0.19035044
-0.0641495 -0.06747474 0.04866384 -0.038776822 -0.037932836 0.023389379 0.037977517 -0.077778414
-0.1544616 0.043468602 -0.18032756 -0.1401724 -0.039379634 0.022374196 0.1497812 -0.13639168
-0.06975592 0.20440876 0.07840817 0.012767987 0.062122304 0.122300744 -0.018424515 0.11042353
-0.029237533 -0.043762956 0.17763409 0.20546798 0.111854784 0.13637298 0.16367699 0.13395926
0.059105117 -0.04210136 -0.010330659 0.16389938 0.04812955 -0.031614598 -0.05981875 -0.14875841
-0.074892916 -0.041180316 -0.08375631 -0.10721036 0.15926228 0.04327257 0.05605688 0.042644072
0.19076301 0.115282044 -0.07557466 0.022973523 -0.14619578 -0.10172734 -0.08838229 0.1400997
0.048352268 -0.07088061 -0.1210688 -0.09073281 -0.10224834 0.13015401 0.16083767 0.14718033
0.0362738 0.060950026 -0.12020364 0.13398919 0.13128352 -0.067932814 0.14053844 -0.10105029
0.07611256 -0.14504142 0.06358451 -0.05129447 -0.077353016 -0.13119517 -0.14816064 -0.03891418
0.16215877 -0.12592232 -0.059690606 -0.16017328 -0.09465452 0.060435876 0.13772278 -0.14229955
0.16514494 0.12423389 0.20105109 0.06446908 -0.18237768 0.027157607 -0.10927891 0.06807602
0.062883325 0.008927062 0.19545697 0.081648834 -0.009983487 0.06893915 0.13445008 0.025091995
0.19059628 -0.15430826 0.14323351 -0.17538844 -0.0072618853 0.12816261 0.0052399416 -0.049933605
0.1525559 0.09557043 -0.10432675 -0.019562075 0.108707815 0.077883005 0.14739808 -0.02738443
0.016560772 0.17504075 0.059036914 -0.08510706 -0.029771881 -0.07668376 0.026964778 -0.08759235
0.08936081 0.16085689 -0.08464059 0.1879782 0.003992878 0.13283525 0.08171407 0.06344863
0.06693633 -0.08401077 0.007277919 -0.16120161 0.07300388 -0.17230847 -0.09364934 0.19550097
0.114958584 0.10754 -0.1781774 -0.09048319 -0.05992551 0.030496567 0.03796622 -0.13440149
-0.13274977 -0.0024801344 0.11669035 -0.14641392 0.06363319 -0.14591113 -0.08867149 -0.18154305
00000000: 108f 0abe 509f 3abe 5bdc c83d cc79 183e
00000010: 120c c63d 8183 acbd 69c1 2cbe 4586 0a3e
00000020: 24b1 053e 189f c0bd 263c 02be 4dd5 bf3c
00000030: d459 c4bc 6732 15be 61b2 083e af02 1dbe
00000040: b60e 38be a7b4 0b3e 87e0 35bd b3bb 5b3d
00000050: faf3 493d 0e80 39bd 858e ba3d 7ce7 c2bb
00000060: d3d9 0e3e 053d 04bc 41b2 e33d b877 0e3e
00000070: 2b9f 8fbd 598e f33d 8322 eebd 6cbd 28bc
00000080: 86b9 b83d d1ec 0fbe 5b60 2e3e d5dc fc3d
00000090: e8fd 37be b196 b83d c078 593d 2851 0fbc
000000a0: 044a 393d 0170 233e 6043 26bd b67d 463d
000000b0: 50d2 c7bc c1c5 d1bd 81e6 2abe 2b6a 1d3e
000000c0: ec98 09be e5a9 bebd 504a a5bc 76cc 27be
000000d0: da5d 263e 6dcf 82bd f641 173e 765f 413e
000000e0: 4637 f7bd 4676 0d3d ba60 8e3d 0446 ce3c
000000f0: 7861 86bd fe35 02bc b9b4 37bd 5c57 ebbd
00000100: eacb 09be c989 323e b881 20bb 8456 373e
00000110: bd2b 89bd b226 c73d 168c 4e3e 7264 a33d
00000120: 959a 6ebd 6f09 8cbd 28bb 1d3e a69f 523e
00000130: 553d d63d 05d7 87bd aba0 3a3e 5ee8 0d3e
00000140: e247 063e c497 7ebd d7da 933d c8ed 98bd
00000150: 4dd7 203e 2b16 d63d 3c8b 24be 307e b7bd
00000160: a8fa b83d 20bb 4bbc e651 123e abcd e13d
00000170: b7ae 0abe a764 f53d eb9b 41be 3aeb 423e
00000180: d060 83bd 3230 8abd bc53 473d 72d4 1ebd
00000190: 765f 1bbd 159b bf3c 508e 1b3d 4a4a 9fbd
000001a0: 2f2b 1ebe 220c 323d caa7 38be 5b89 0fbe
000001b0: 8a4c 21bd 174a b73c 3e60 193e 43aa 0bbe
000001c0: 31dc 8ebd 8850 513e 7694 a03d d230 513c
000001d0: f573 7e3d d078 fa3d 02ef 96bc bb25 e23d
000001e0: 8d83 efbc c940 33bd b6e5 353e 3366 523e
000001f0: 1f14 e53d 5ca5 0b3e f19a 273e 9e2c 093e
00000200: 3518 723d 7a72 2cbd ed41 29bc 3dd5 273e
00000210: 7e23 453d 4f7e 01bd 8104 75bd 2054 18be
00000220: 7561 99bd b1ac 28bd 6e88 abbd 1b91 dbbd
00000230: a715 233e 943e 313d e69b 653d 8dab 2e3d
00000240: 6157 433e fe18 ec3d e3c6 9abd f832 bc3c
00000250: 59b4 15be 6c56 d0bd c601 b5bd 4c76 0f3e
00000260: 070d 463d da29 91bd ebf2 f7bd 20d2 b9bd
00000270: 9467 d1bd 1847 053e a1b2 243e 71b6 163e
00000280: d693 143d bca6 793d 532d f6bd 7634 093e
00000290: 306f 063e 5c20 8bbd 4fe9 0f3e 74f3 cebd
000002a0: e7e0 9b3d bd85 14be 9838 823d 261a 52bd
000002b0: 426b 9ebd 0758 06be 6cb7 17be 7a64 1fbd
000002c0: f30c 263e c8f1 00be 237e 74bd 7704 24be
000002d0: 3bda c1bd 9c8b 773d 3307 0d3e f9b6 11be
000002e0: c11b 293e 566e fe3d 56e0 4d3e 5d08 843d
000002f0: 37c1 3abe a179 de3c 9fcd dfbd 716b 8b3d
00000300: f9c8 803d d042 123c df25 483e 8137 a73d
00000310: c891 23bc f82f 8d3d 48ad 093e ba8d cd3c
00000320: ac2b 433e fc02 1ebe ceab 123e 0799 33be
00000330: 1cf5 edbb 0f3d 033e d1b3 ab3b 2e87 4cbd
00000340: 9d37 1c3e 6eba c33d 43a9 d5bd a540 a0bc
00000350: 34a2 de3d 2081 9f3d 86ef 163e 5055 e0bc
00000360: 75aa 873c e23d 333e b1d0 713d 9c4c aebd
00000370: 29e4 f3bc 600c 9dbd 3de5 dc3c 9e63 b3bd
00000380: cd02 b73d abb7 243e 0c58 adbd 5b7d 403e
00000390: b0d6 823b f705 083e b559 a73d 5bf1 813d
000003a0: ea15 893d d70d acbd 9c7b ee3b 0912 25be
000003b0: 0f83 953d a271 30be 3acb bfbd 6831 483e
000003c0: 686f eb3d ee3d dc3d 2374 36be 404f b9bd
000003d0: 7474 75bd f0d3 f93c 7882 1b3d 8ba0 09be
000003e0: 8eef 07be c089 22bb 5afb ee3d 88ed 15be
000003f0: 1e52 823d ba69 15be 6699 b5bd 6ce6 39be

conv_block_1.0.bias f4 [10]
-0.044121195 -0.112966426 -0.015214438 0.078854896 -0.11533686 0.03464586 0.03425251 -0.077132605
-0.07733128 -0.120735325
00000000: 6db8 34bd f15a e7bd fa45 79bc ad7e a13d
00000010: bb35 ecbd d1e8 0d3d 5c4c 0c3d b3f7 9dbd
00000020: dd5f 9ebd 1544 f7bd

conv_block_1.2.weight f4 [10, 10, 3, 3]
0.010782124 -0.060376752 -0.09693272 0.005557556 0.04781466 -0.04322614 -0.07791745 0.08555483
-0.006798261 0.023977578 0.0021107667 0.025722802 0.08065892 -0.05369513 -0.07478772 -0.0795643
0.07170729 -0.089876704 0.04368681 -0.06787341 0.1023626 0.111550435 0.040063564 -0.0066822264
0.06706259 -0.095086 0.09349147 -0.07806039 -0.062129986 -0.078925684 0.05387296 -0.05328311
0.07517595 0.07393965 0.08399958 0.013007213 -0.0048452476 -0.026716487 0.024352944 -0.079789475
-0.049652185 0.06403755 0.047598362 -0.04343769 -0.04109573 0.037390165 -0.08798419 -0.06463304
-0.09644214 -0.09409422 -0.01596763 -0.07237939 -0.11731534 0.08314361 0.040733572 -0.02846863
-0.021552164 0.045624625 0.08772479 -0.09029441 -0.09038643 -0.056309212 -0.051428027 0.083000414
0.035846 -0.020871885 0.11085558 -0.05486156 0.11576981 0.049244802 0.09084341 0.08155017
-0.046862382 -0.076194875 0.027936662 0.0900532 0.08241569 -0.07705505 0.0051181614 0.112339914
-0.0032902102 -0.0365654 -0.011209816 -0.021713704 0.056025453 -0.061396454 -0.033349134 -0.06355053
0.054368116 0.09954692 0.014221413 -0.09502885 0.020387236 0.09805562 0.095179036 -0.045080718
0.0055080494 -0.09812822 -0.049661182 0.10700612 -0.071438365 0.042554688 0.041607108 0.08353485
-0.102701426 0.05826539 0.08367762 -0.095758304 0.088915765 -0.024961352 0.052162834 -0.008343261
0.046091415 0.07466957 0.019913707 0.037944876 -0.020219408 -0.10742853 -0.03330153 -0.10486252
0.08680115 -0.066075705 0.052538767 0.024343869 -0.013549035 0.031717125 -0.015115606 0.038032115
0.10730926 0.057862636 -0.02971853 0.11086679 0.11578781 0.008384332 0.06994145 -0.044598415
-0.04979425 -0.061512206 -0.086401924 -0.03415958 0.05781272 -0.024667151 -0.108149715 0.009577516
-0.05304663 0.07408031 -0.03423941 -0.019790998 0.086785585 0.044480737 0.036679447 -0.078788705
0.053556923 0.103061184 0.06256763 0.12667802 0.068503186 0.007113413 0.037522554 -0.057502106
0.089524224 0.046406154 0.09304268 0.041078 -0.022699224 -0.016324943 -0.053234845 -0.05526265
0.10494402 -0.012802937 0.13082041 0.07903672 -0.01847934 -0.09961233 0.06304043 -0.034412622
-0.09213373 -0.076288834 -0.100596786 0.049581356 0.08818323 -0.06066741 -0.026381187 -0.0976961
-0.0051840898 0.027332919 0.1044753 0.0424926 0.07846133 -0.00792678 0.07785114 -0.03522571
0.024347942 0.020684035 -0.020852659 -0.0018503901 0.051725075 0.030188352 -0.00031529492 0.0009290911
0.03777997 0.03288493 -0.080260865 0.049967203 -0.08678864 0.047888845 0.05268901 0.012291943
0.024501521 -0.033654857 -0.032665595 -0.036988102 0.036300004 0.02440935 -0.024531236 -0.056715637
0.08550556 -0.014833002 -0.045921694 0.09237269 -0.102258086 0.0076094344 -0.087201685 -0.036222234
0.007600958 -0.075418346 0.02217877 0.072430946 0.036545224 0.059480585 0.10212504 0.0036447071
0.10223625 0.061391335 -0.004031412 0.03183551 -0.040256895 -0.018991474 -0.082674 0.03525104
0.037921824 0.015785879 -0.08771307 -0.017024789 0.007168621 -0.08101311 0.029362727 0.069815256
0.0054665357 -0.028934982 -0.034682482 -0.069194406 -0.016654251 0.0915786 0.08587634 -0.0227953
00000000: 81a7 303c 9d4d 77bd a984 c6bd 291c b63b
00000010: 4ed9 433d e50d 31bd 2f93 9fbd 5f37 af3d
00000020: f2c3 debb a06c c43c ca54 0a3b a0b8 d23c
00000030: 8130 a53d 6def 5bbd 4e2a 99bd 9cf2 a2bd
00000040: 46db 923d 4711 b8bd f1f0 323d 3701 8bbd
00000050: 7ca3 d13d 8e74 e43d b119 243d 94f6 dabb
00000060: 1c58 893d 73bc c2bd 7578 bf3d 20de 9fbd
00000070: 037c 7ebd caa3 a1bd e5a9 5c3d 643f 5abd
00000080: d9f5 993d ac6d 973d f907 ac3d 351c 553c
00000090: e2c4 9ebb 89dc dabc d37f c73c aa68 a3bd
000000a0: 1760 4bbd 1e26 833d 80f6 423d b8eb 31bd
000000b0: ff53 28bd 6e26 193d 0e31 b4bd 545e 84bd
000000c0: 7583 c5bd 78b4 c0bd 8cce 82bc a53b 94bd
000000d0: 0643 f0bd 3247 aa3d 3fd8 263d 0b37 e9bc
000000e0: 2a8e b0bc e3e0 3a3d 0ea9 b33d 47ec b8bd
000000f0: 851c b9bd 7da4 66bd 32a6 52bd 1ffc a93d
00000100: 41d3 123d 84fb aabc 4008 e33d 84b6 60bd
00000110: b918 ed3d ebb4 493d 1c0c ba3d c703 a73d
00000120: c5f2 3fbd 0f0c 9cbd 6ddb e43c d06d b83d
00000130: 8fc9 a83d 0acf 9dbd 40b6 a73b 7812 e63d
00000140: 91a0 57bb 9ac5 15bd 60a9 37bc f0e0 b1bc
00000150: f27a 653d d97a 7bbd 1a99 08bd c826 82bd
00000160: 1ab1 5e3d 41df cb3d ee00 693c 7c9e c2bd
00000170: 2203 a73c 63d1 c83d 3aed c23d 8fa6 38bd
00000180: de7c b43b 73f7 c8bd 8669 4bbd 0626 db3d
00000190: 474e 92bd d34d 2e3d 376c 2a3d 5214 ab3d
000001a0: 2055 d2bd b1a7 6e3d 2c5f ab3d ee1c c4bd
000001b0: 7819 b63d c07b ccbc b2a8 553d 2cb2 08bc
000001c0: 5aca 3c3d 5cec 983d 1222 a33c 166c 1b3d
000001d0: 2ca3 a5bc 7d03 dcbd 2f67 08bd 29c2 d6bd
000001e0: cdc4 b13d b352 87bd e432 573d cb6c c73c
000001f0: c6fc 5dbc d1e9 013d 72a7 77bc 90c7 1b3d
00000200: f5c4 db3d 5f01 6d3d 4674 f3bc 210e e33d
00000210: 2922 ed3d 705e 093c 773d 8f3d d4ac 36bd
00000220: 0ef5 4bbd 39f4 7bbd 7ef3 b0bd eaea 0bbd
00000230: 08cd 6c3d c412 cabc 997d ddbd 03eb 1c3c
00000240: 6c47 59bd 6bb7 973d a03e 0cbd bb20 a2bc
00000250: a4bc b13d 6f31 363d 303d 163d f95b a1bd
00000260: 815e 5b3d be11 d33d 7523 803d e2b7 013e
00000270: 664b 8c3d a217 e93b 40b1 193d 5487 6bbd
00000280: 7a58 b73d 6114 3e3d 298d be3d 6841 283d
00000290: b9f3 b9bc e3bb 85bc c80c 5abd 175b 62bd
000002a0: e4ec d63d 69c3 51bc c9f5 053e 01de a13d
000002b0: fc61 97bc 8d01 ccbd 571b 813d 40f4 0cbd
000002c0: 9cb0 bcbd 523d 9cbd b005 cebd d215 4b3d
000002d0: 6999 b43d 647e 78bd 5c1d d8bc e514 c8bd
000002e0: 4cdf a9bb 49e9 df3c 25f7 d53d b80c 2e3d
000002f0: 55b0 a03d 53df 01bc 6b70 9f3d d648 10bd
00000300: 5675 c73c 9171 a93c 32d3 aabc ca88 f2ba
00000310: acdd 533d 904d f73c 2b4e a5b9 408e 733a
00000320: 2bbf 1a3d 59b2 063d cf5f a4bd 69aa 4c3d
00000330: 3ebe b1bd 1827 443d 6ed0 573d 2564 493c
00000340: 6ab7 c83c add9 09bd 5ccc 05bd d680 17bd
00000350: 50af 143d 1ef6 c73c bbf5 c8bc a84e 68bd
00000360: 8a1d af3d 1f06 73bc 6318 3cbd e52d bd3d
00000370: b06c d1bd 9058 f93b cc96 b2bd c45d 14bd
00000380: 7511 f93b ef74 9abd 40b0 b53c ad56 943d
00000390: 72b0 153d eaa1 733d ef26 d13d 0adc 6e3b
000003a0: 3d61 d13d 7b75 7b3d ef19 84bb f465 023d
000003b0: 6ae4 24bd 0294 9bbc fc50 a9bd 6563 103d
000003c0: ea53 1b3d 6351 813c e9a2 b3bd 9277 8bbc
000003d0: c0e6 ea3b 34ea a5bd 1a8a f03c 4dfb 8e3d
000003e0: a020 b33b 0e09 edbc 380f 0ebd ccb5 8dbd
000003f0: 7f6e 88bc 908d bb3d efdf af3d 36bd babc

conv_block_1.2.bias f4 [10]
-0.09443447 0.06607478 -0.07418305 -0.062553965 -0.007782674 -0.041114908 0.06224212 0.052061133
0.059788708 0.061475784
00000000: dc66 c1bd 3752 873d 48ed 97bd 4b1c 80bd
00000010: cd05 ffbb 1b68 28bd 98f1 7e3d 0e3e 553d
00000020: 01e5 743d 08ce 7b3d

conv_block_2.0.weight f4 [10, 10, 3, 3]
-0.01985731 0.0022035195 -0.009806007 -0.053575598 -0.034796413 0.046696533 0.03104359 0.09360765
0.084717244 -0.024498606 0.036026567 0.06554805 0.087457 0.0006420381 -0.0943188 0.09363735
-0.09150429 -0.02748952 -0.041545235 0.013041044 -0.04704486 0.08155697 -0.08952814 0.095676266
0.054578044 0.07399935 -0.05657578 0.0435141 0.024144499 0.065207906 0.10046592 0.11012156
-0.060640804 -0.07100351 0.09383979 -0.04187525 0.03953792 -0.0033599592 0.060772296 0.025168452
0.0349582 0.025325604 -0.08099251 -0.07433728 -0.06804939 0.06894079 -0.03039901 0.09001247
-0.055999413 0.071501 -0.08571217 0.0048456634 0.07398351 0.021957025 -0.020075824 0.04072663
-0.06795153 -0.03997554 -0.09094981 -0.049082078 0.02484794 -0.0011622376 -0.08794358 0.11054268
-0.059957467 -0.09758402 0.03113475 -0.064857565 -0.055082187 -0.074683234 -0.0783284 0.047152426
0.018958831 -0.0023077906 0.031633493 0.0019060143 0.06266142 -0.029700631 -0.04660613 -0.03624487
-0.043472543 -0.0857179 -0.0052004475 0.016426664 -0.004613588 0.043982923 0.00033391477 -0.093729325
-0.015537 -0.06966196 0.08181262 -0.082769275 0.11002166 0.08184367 -0.06844545 -0.029683148
0.04245093 -0.055917684 0.043628376 0.106291436 -0.092413306 -0.0014755093 0.10706925 -0.075598426
-0.012077364 0.058199145 -0.029835034 0.038887355 0.06880285 -0.0819233 -0.003250778 0.03705437
0.09690666 -0.055594962 0.06899473 0.06740345 0.09671384 0.11593226 -0.07055979 0.009112626
0.11282755 0.010402836 0.09220866 -0.012142091 0.10887743 0.093451306 -0.0025609399 0.038071062
0.03515659 -0.0012445985 -0.026272282 0.039612964 0.06461997 -0.03942869 -0.018515253 -0.0038006885
0.072853856 -0.04408061 0.10228776 0.0112966355 0.01226793 0.08563044 0.0699751 0.056310385
-0.09539282 -0.076808065 0.08079173 -0.117299646 -0.05358312 0.024870723 0.0747591 -0.07487324
0.051412687 -0.10296037 -0.037351463 -0.001308896 -0.056077402 -0.03691693 0.052620776 0.07784703
-0.009733283 -0.009195483 -0.017696854 0.03687137 0.06894384 0.045657862 -0.015639162 -0.05254226
-8.338579e-05 0.09076935 -0.049517382 0.078364596 0.029962266 -0.03565745 -0.112431064 -0.03730616
0.0070614726 -0.007436149 -0.00471066 0.08651999 0.061006572 -0.03413599 0.039468255 0.03310845
-0.07243736 0.09913957 -0.053402364 -0.0917808 -0.04115535 0.00092916435 0.05010433 -0.013415828
0.014299496 -0.07197737 0.018510498 -0.04902167 -0.08083454 -0.077301934 -0.04959127 0.035518907
0.08721786 -0.05756419 -0.084221125 0.09827966 0.027567543 0.022472037 -0.0032962405 -0.11494216
-0.013877058 -0.02746951 -0.028789582 -0.05294496 -0.06347165 -0.107934095 -0.050914545 0.05197701
0.015145948 -0.022099001 0.08125644 -0.073821604 0.057518113 -0.08009401 -0.040130563 0.045858305
-0.0012509528 -0.08556117 0.030871557 -0.075979196 0.028324876 -0.023058517 0.032009035 -0.047083944
-0.092326626 -0.08250276 0.041236136 0.0040806145 -0.08801139 -0.03488356 -0.079224594 0.083220996
-0.027814722 -0.004580914 -0.000119591874 0.01542993 -0.062357444 -0.073311836 -0.056299448 0.004069148
-0.0032804103 -0.05069923 -0.025417224 -0.06122379 0.06747476 -0.09682083 0.051122446 -0.032803908
00000000: ccab a2bc ec68 103b 60a9 20bc 1672 5bbd
00000010: af86 0ebd dd44 3f3d 204f fe3c 5eb5 bf3d
00000020: 3c80 ad3d 4db1 c8bc 9890 133d 0e3e 863d
00000030: a81c b33d 734e 283a 372a c1bd f0c4 bf3d
00000040: 9a66 bbbd b431 e1bc 562b 2abd 1aaa 553c
00000050: 1cb2 40bd 5707 a73d 885a b7bd ebf1 c33d
00000060: 3a8d 5f3d f98c 973d 01bc 67bd d73b 323d
00000070: afca c53c b98b 853d 14c1 cd3d 6a87 e13d
00000080: 7e62 78bd 4a6a 91bd 132f c03d 6285 2bbd
00000090: 84f2 213d c332 5cbb 5fec 783d 122e ce3c
000000a0: 5430 0f3d a477 cf3c 67df a5bd 253e 98bd
000000b0: 7b5d 8bbd d430 8d3d 5807 f9bc 7558 b83d
000000c0: a45f 65bd 1e6f 923d dd89 afbd 5fc8 9e3b
000000d0: ab84 973d 38df b33c 0e76 a4bc f7d0 263d
000000e0: 2c2a 8bbd 64bd 23bd e543 babd 4a0a 49bd
000000f0: e88d cb3c 3956 98ba c31b b4bd 3364 e23d
00000100: f695 75bd 21da c7bd 4e0e ff3c 0bd4 84bd
00000110: dc9d 61bd 86f3 98bd a46a a0bd e722 413d
00000120: 8d4f 9b3c 4d3e 17bb 1f92 013d 3ad3 f93a
00000130: a154 803d bd4e f3bc 12e6 3ebd 8075 14bd
00000140: 4410 32bd de8c afbd 8468 aabb 3691 863c
00000150: 952d 97bb 7027 343d 4811 af39 29f5 bfbd
00000160: e78e 7ebc eeaa 8ebd 608d a73d f082 a9bd
00000170: 0953 e13d a79d a73d 212d 8cbd 132a f3bc
00000180: 07e1 2d3d f109 65bd abb3 323d 53af d93d
00000190: 3043 bdbd e065 c1ba 1f47 db3d 59d3 9abd
000001a0: 23e0 45bc 3a62 6e3d 9a68 f4bc 5948 1f3d
000001b0: 82e8 8c3d 67c7 a7bd 010b 55bb 53c6 173d
000001c0: 0077 c63d 8bb7 63bd 1c4d 8d3d d20a 8a3d
000001d0: e811 c63d e56d ed3d a781 90bd 204d 153c
000001e0: 2112 e73d a870 2a3c e5d7 bc3d 9fef 46bc
000001f0: 21fb de3d 6663 bf3d 71d5 27bb 67f0 1b3d
00000200: 5b00 103d cc21 a3ba f838 d7bc 3441 223d
00000210: 7a57 843d fa7f 21bd 4dad 97bc f914 79bb
00000220: 6734 953d df8d 34bd 3f7c d13d 8615 393c
00000230: 6eff 483c 035f af3d 1b4f 8f3d b8a5 663d
00000240: 505d c3bd 8c4d 9dbd 2276 a53d cc3a f0bd
00000250: f979 5bbd b0bd cb3c 4d1b 993d 2457 99bd
00000260: 1c96 523d e3dc d2bd d9fd 18bd 438f abba
00000270: 6bb1 65bd 3536 17bd e288 573d 436e 9f3d
00000280: 5978 1fbc a7a8 16bc fef8 90bc 6f06 173d
00000290: 6e32 8d3d bd03 3b3d b31d 80bc 8e36 57bd
000002a0: 68df aeb8 48e5 b93d bdd2 4abd 9e7d a03d
000002b0: 6d73 f53c 8c0d 12bd 4242 e6bd 58ce 18bd
000002c0: ed63 e73b f0aa f3bb e15b 9abb 6431 b13d
000002d0: 07e2 793d 2ed2 0bbd 77a9 213d ba9c 073d
000002e0: 0a5a 94bd b009 cb3d 70bc 5abd 92f7 bbbd
000002f0: 8392 28bd 2a93 733a 333a 4d3d 10ce 5bbc
00000300: 6f48 6a3c df68 93bd 54a3 973c f2ca 48bd
00000310: 948c a5bd 7a50 9ebd 3720 4bbd 467c 113d
00000320: 479f b23d 6ec8 6bbd 207c acbd d946 c93d
00000330: 54d5 e13c 4717 b83c bd05 58bb cc66 ebbd
00000340: 9a5c 63bc bd07 e1bc 21d8 ebbc d0dc 58bd
00000350: 6dfd 81bd 8d0c ddbd c58b 50bd d8e5 543d
00000360: b626 783c f708 b5bc c769 a63d c82f 97bd
00000370: 1d98 6b3d 5408 a4bd f25f 24bd ebd5 3b3d
00000380: 03f7 a3ba b23a afbd 59e6 fc3c fb9a 9bbd
00000390: 9209 e83c 37e5 bcbc e81b 033d 18db 40bd
000003a0: be15 bdbd 35f7 a8bd 39e7 283d adb6 853b
000003b0: 513f b4bd 10e2 0ebd 8140 a2bd c56f aa3d
000003c0: b3db e3bc 7e1b 96bb 66cd fab8 d1cd 7c3c
000003d0: 856a 7fbd 8424 96bd 409a 66bd 7d56 853b
000003e0: 27fc 56bb ffa9 4fbd c837 d0bc ccc5 7abd
000003f0: 3530 8a3d 004a c6bd c565 513d 645d 06bd

conv_block_2.0.bias f4 [10]
0.022458216 -0.007854949 0.019955065 -0.07461354 -0.019073002 0.10231342 0.049579527 0.07813191
0.022354133 -0.021176212
00000000: 4bfa b73c 0bb2 00bc ce78 a33c fcce 98bd
00000010: fc3e 9cbc b389 d13d e713 4b3d 9f03 a03d
00000020: 0420 b73c bc79 adbc

conv_block_2.2.weight f4 [10, 10, 3, 3]
-0.051954724 -0.068169884 -0.039022546 -0.04515507 -0.0035639682 -0.079909 0.08121076 -0.025820572
0.090702526 0.109870024 -0.002136005 0.023589615 0.011398791 0.06439491 0.015112793 0.017114555
0.047151692 0.019707102 0.0653705 -0.09086817 0.094296746 -0.11157985 0.0097331805 0.08597496
0.001483174 -0.09571513 0.09699067 0.047391172 0.022025932 -0.019923158 0.1130839 -0.08411635
0.035174 -0.07888391 0.03579641 0.060086414 0.07533868 0.071988285 0.12604313 -0.012583146
0.11783072 0.04972945 0.029231923 -0.036918 0.10380541 -0.04052006 -0.07640945 -0.061883032
0.074964024 0.021114228 -0.020368017 -0.0066787517 0.031508747 0.09406661 0.05394038 -0.021383684
0.04698843 0.027570365 0.08373115 -0.093346335 -0.045018077 0.033466265 -0.08433627 -0.07241754
-0.04089 -0.08291449 -0.111415446 -0.11053021 -0.06488421 0.016121728 -0.05579727 -0.11535988
0.068187505 0.08527776 -0.031555273 -0.020616466 0.016218804 0.09775082 0.10722133 -0.041136116
0.052576844 0.0090002045 -0.071751185 -0.050224323 0.07244382 -0.022583917 -0.03166019 0.04031282
-0.095906034 0.062109716 0.06914206 0.10067749 0.06042841 0.08251953 0.04122334 -0.037895422
0.095739685 0.052681297 -0.058689058 0.01091737 0.047949 -0.09212769 -0.067996345 0.09306663
-0.0056585204 -0.017343162 -0.053315554 0.03401335 0.07871743 -0.0075810617 0.09881909 -0.014142595
0.03740182 -0.039492898 0.09026165 -0.007581268 0.017760113 -0.0020535097 0.046160687 0.10718216
0.098663345 0.077175066 -0.0027422723 0.091301434 -0.003099888 0.0020417892 0.03059285 0.047853317
0.06226428 0.07570163 0.0016538668 -0.08098745 -0.07797417 0.07213861 -0.10115038 -0.06944129
-0.05403515 -0.07073197 -0.02785255 0.055643573 0.027455293 0.07008546 0.06666586 -0.07172422
0.044780828 0.036370296 -0.08035374 -0.002329437 0.086831026 -0.023494644 -0.08865976 0.058218777
0.08047168 0.09434209 0.08905974 -0.027158974 -0.06559215 -0.06300263 0.040204547 0.10975782
0.051287692 -0.0071995943 0.059549935 -0.026760386 0.00837373 -0.023132067 0.0011227545 -0.06467497
0.10606136 0.09256273 -0.06503302 0.09541141 0.09135441 -0.08506271 0.021759711 0.016267397
0.023084141 -0.08105329 -0.056392454 -0.08152713 -0.11235678 -0.06069504 0.009307109 0.055168938
-0.07648437 0.012456779 -0.01571603 -0.10078168 0.07521318 0.081542596 -0.09259772 -0.106686324
0.079610884 0.08636372 0.072843455 -0.08665922 -0.08146964 -0.013006311 0.01049517 0.052416716
0.09682138 0.006747907 -0.032174975 -0.01660252 -0.029499283 0.02619175 0.08621952 0.060528368
-0.0018848502 0.025334964 0.11668338 -0.04229448 -0.03780252 -0.01323003 0.012838422 0.019286934
-0.0025447223 -0.044292387 0.039180133 -0.036652032 0.08126069 -0.07424217 0.067618035 0.0046746368
-0.010969556 -0.023703014 0.04059884 0.0045047626 0.08778449 -0.046409454 -0.024213925 0.08268053
0.041542254 0.09464681 0.07211342 0.06339622 -0.06828533 0.029753327 -0.006704755 0.0073129116
0.08398714 -0.02897856 -0.01964248 0.03815074 0.043603722 0.06915334 0.0901675 0.11787371
0.091346934 0.053179953 -0.028458644 -0.06674717 -0.03571702 0.0057890187 -0.04255027 -0.09679634
00000000: 7ace 54bd a79c 8bbd 1bd6 1fbd 86f4 38bd
00000010: 7791 69bb 54a7 a3bd d451 a63d aa85 d3bc
00000020: 3fc2 b93d 8903 e13d 38fc 0bbb 023f c13c
00000030: ffc1 3a3c 7be1 833d a69b 773c d333 8c3c
00000040: 2222 413d ca70 a13c f8e0 853d 1719 babd
00000050: a71e c13d fa83 e4bd eb77 1f3c a413 b03d
00000060: 1067 c23a 4b06 c4bd 0ba3 c63d 3f1d 423d
00000070: ba6f b43c e435 a3bc 8898 e73d 3145 acbd
00000080: 9d12 103d e38d a1bd 429f 123d 2c1d 763d
00000090: 2a4b 9a3d 986e 933d 7311 013e 8a29 4ebc
000000a0: 3c51 f13d 1cb1 4b3d c977 ef3c 5437 17bd
000000b0: ee97 d43d 5df8 25bd 8f7c 9cbd 1079 7dbd
000000c0: bd86 993d bff7 ac3c d4da a6bc 6ed9 dabb
000000d0: 510f 013d ffa5 c03d 97f0 5c3d d62c afbc
000000e0: f176 403d 3fdb e13c 3d7b ab3d 5d2c bfbd
000000f0: e064 38bd ec13 093d 7fb8 acbd a64f 94bd
00000100: 467c 27bd 12cf a9bd c82d e4bd aa5d e2bd
00000110: 03e2 84bd b711 843c ae8b 64bd cd41 ecbd
00000120: e4a5 8b3d 1ba6 ae3d 1a40 01bd dde3 a8bc
00000130: 4cdd 843c 9531 c83d db96 db3d 587e 28bd
00000140: d15a 573d 9875 133c 49f2 92bd 05b8 4dbd
00000150: 6d5d 943d e801 b9bc 1eae 01bd 0e1f 253d
00000160: 626a c4bd c266 7e3d 5a9a 8d3d 0030 ce3d
00000170: c883 773d 0000 a93d ced9 283d 3b38 1bbd
00000180: 2b13 c43d 58c8 573d f063 70bd c5de 323c
00000190: 2c66 443d 71ad bcbd ab41 8bbd b899 be3d
000001a0: 1c6b b9bb 3f13 8ebc 6961 5abd 9551 0b3d
000001b0: 9b36 a13d 8e6a f8bb aa61 ca3d 58b6 67bc
000001c0: a732 193d 4ec3 21bd 1adb b83d 496c f8bb
000001d0: a87d 913c 2d94 06bb fd12 3d3d 5282 db3d
000001e0: 0210 ca3d f60d 9e3d b2b7 33bb 3ffc ba3d
000001f0: 7e27 4bbb 8acf 053b db9d fa3c d701 443d
00000200: d408 7f3d 7509 9b3d 90c6 d83a c0dc a5bd
00000210: ecb0 9fbd 68bd 933d ee27 cfbd 3c37 8ebd
00000220: f653 5dbd ecdb 90bd 082b e4bc 84ea 633d
00000230: ece9 e03c f788 8f3d 1c88 883d 26e4 92bd
00000240: 1a6c 373d 05f9 143d 8090 a4bd 78a9 18bb
00000250: 77d4 b13d d777 c0bc 4093 b5bd d076 6e3d
00000260: 56ce a43d 6d36 c13d f464 b63d 7f7c debc
00000270: 2d55 86bd 8607 81bd 86ad 243d b5c8 e03d
00000280: 0b13 523d 93ea ebbb a2ea 733d 9938 dbbc
00000290: f831 093c 767f bdbc 6429 933a 5074 84bd
000002a0: b336 d93d 8791 bd3d 0830 85bd 0f67 c33d
000002b0: 0518 bb3d 5c35 aebd 6c41 b23c 3443 853c
000002c0: f41a bd3c 44ff a5bd c6fb 66bd b2f7 a6bd
000002d0: 501b e6bd 5d9b 78bd d87c 183c d3f8 613d
000002e0: d6a3 9cbd 8517 4c3c e7be 80bc a066 cebd
000002f0: 5e09 9a3d ceff a63d e0a3 bdbd 5c7e dabd
00000300: 080b a33d 76df b03d f32e 953d 647a b1bd
00000310: 8ed9 a6bd 6c18 55bc eff3 2b3c e9b2 563d
00000320: 4a4a c63d 8c1d dd3b e8c9 03bd 0202 88bc
00000330: 7ba8 f1bc 1590 d63c dc93 b03d 98ec 773d
00000340: 140d f7ba 458b cf3c b2f7 ee3d fa3c 2dbd
00000350: d1d6 1abd c5c2 58bc 3f58 523c a2ff 9d3c
00000360: 5bc5 26bb ef6b 35bd 597b 203d 7120 16bd
00000370: 016c a63d 470c 98bd 537b 8a3d b22d 993b
00000380: a7b9 33bc d32c c2bc f84a 263d b09c 933b
00000390: 5bc8 b33d d717 3ebd 485c c6bc 6954 a93d
000003a0: 3628 2a3d 30d6 c13d 33b0 933d e1d5 813d
000003b0: 2ed9 8bbd 40bd f33c 90b3 dbbb 26a1 ef3b
000003c0: 7301 ac3d 7264 edbc 44e9 a0bc f343 1c3d
000003d0: d199 323d 44a0 8d3d bda9 b83d c667 f13d
000003e0: 1a14 bb3d 39d3 593d 1a22 e9bc beb2 88bd
000003f0: 034c 12bd cfb1 bd3b 3149 2ebd 293d c6bd

conv_block_2.2.bias f4 [10]
-0.028703794 -0.0040326477 0.009128981 0.0652552 0.0069806706 0.041853927 -0.036760755 0.09477995
0.052196965 -0.021473277
00000000: 3824 ebbc 4d24 84bb b991 153c 85a4 853d
00000010: 1cbe e43b 066f 2b3d 7292 16bd fe1b c23d
00000020: 7ccc 553d bae8 afbc

classifier.1.weight f4 [3, 1690]
-0.019140402 0.024171542 0.020786844 -0.025782304 -0.028521614 0.0010871219 0.0078630205 -0.012771601
-0.029192226 -0.0058658933 -0.012673959 -0.00606588 0.015792586 -0.021592494 -0.0057909866 -0.005340585
0.01709396 0.011612976 -0.00092159514 0.016446637 -0.01925913 -0.03209882 -0.018668376 -0.00026389127
-0.021618139 -0.011831655 -0.021783434 -0.004171851 -0.009517635 0.015121566 -7.739602e-05 -0.016663617
-0.02147563 0.0007279031 -0.017489359 0.0161206 -0.008822492 0.011925854 -0.013254798 -0.014020821
-0.004179393 -0.011789297 0.00497903 0.0018365884 0.01428719 0.02422369 0.013954099 0.0171103
-0.0043782135 0.0048961104 -0.0183295 -0.013243019 -0.019119654 -0.0114019895 0.03364069 -0.010656637
0.021492645 0.030929005 0.0044022873 0.017772205 -0.015404355 -0.0044240067 0.029992726 0.004119422
0.0094616115 0.011588073 0.030720903 0.0026720937 0.027163671 -0.008908786 0.025203371 0.018033057
0.026100779 0.02513318 0.006545382 -0.00082811667 0.014630646 0.023469847 -0.008913198 0.010479483
-0.0050026327 0.0021223645 0.0012450084 0.024449253 0.0077041276 0.036436733 0.009743779 0.0036938703
-0.0048214174 -0.0077652032 0.011726585 0.03359639 0.020795275 0.026698137 0.024582755 0.0211917
0.038250595 -0.0025439092 0.029710105 0.02338482 0.011552682 -0.01127095 -0.009013449 0.015791966
0.0046086786 0.02770157 0.024611235 -0.009102078 0.02916381 0.03932693 0.003671046 0.028995084
-0.014263847 -0.009503283 -0.011405217 0.021829657 0.009243496 0.014197936 -0.013347014 0.020194484
-0.010455183 0.0003648121 0.0054020477 -0.004568339 0.031368576 -0.0058120578 -0.012011707 -0.011532791
0.007654466 -0.0054169255 -0.01797702 -0.007555227 0.0025842884 0.008765572 -0.007806785 -0.0044731926
0.011283274 -0.0036854292 -0.016284028 0.01202845 -0.001984771 0.009837203 -0.023015717 -0.0072684833
-0.0001784793 -0.024268845 -0.025978757 -0.019204736 0.0064265784 0.023911497 0.006510483 -0.01963476
0.017190933 0.013475314 0.026985342 -0.023157343 0.004082092 0.0039586723 -0.011175127 -0.0013714847
-0.008877751 -0.0058787847 -0.009388357 0.00918281 -0.0007618406 0.0102542015 0.0128756855 0.019177966
0.014727099 0.009183919 -0.011246619 0.014005254 0.0034217555 -0.022305438 -0.023460846 -0.024006685
0.009755142 -0.0011364571 -0.0076420493 -0.0036251438 -0.0073324824 -0.010583293 -0.010147413 -0.007341118
-0.014152689 -0.0118399905 -0.0205971 -0.02301254 -0.03597369 -0.03299907 -0.021359006 -0.007191615
-0.02110585 -0.006830074 -0.0063300356 -0.012710083 -0.03327212 -0.021786116 -0.03681562 -0.023751954
0.0015695202 -0.003597455 -0.038237195 -0.03600658 -0.042895194 -0.028182894 -0.005355154 -0.02465619
-0.031445313 -0.030965138 -0.014550687 -0.0038281688 -0.040202513 -0.00036428505 0.019686637 -0.00015642511
-0.009246006 -0.012788879 -0.009206313 0.0014021087 0.010255668 -0.006806001 -0.0138555765 -0.013201389
-0.04468095 -0.0036048084 -0.017086547 -0.0077004796 0.005450294 0.01377396 -0.00052924576 -0.0050295275
0.012331385 -0.028201003 -0.0036130338 -0.03489624 0.0034844654 -0.001323525 -0.0013992949 -0.014960421
0.026056226 -0.0024432868 0.010701837 0.008488137 0.016855339 0.032662816 -0.023348572 -0.03125382
-0.010071226 -0.013792759 0.0020497686 -0.00296599 -0.01664943 -0.01833647 0.0069159577 -0.004114591
00000000: 55cc 9cbc 6603 c63c 2c49 aa3c 6935 d3bc
00000010: 29a6 e9bc c27d 8e3a e6d3 003c fa3f 51bc
00000020: 8924 efbc ae36 c0bb 70a6 4fbc 4ac4 c6bb
00000030: 745f 813c bee2 b0bc 51c2 bdbb 1300 afbb
00000040: a208 8c3c 5a44 3e3c 3497 71ba 19bb 863c
00000050: 53c5 9dbc 0d7a 03bd 6cee 98bc e35a 8ab9
00000060: 8618 b1bc 8fd9 41bc 2c73 b2bc 06b4 88bb
00000070: dbef 1bbc 72c0 773c ac4f a2b8 2382 88bc
00000080: a9ed afbc c0d0 3e3a d845 8fbc 590f 843c
00000090: 378c 10bc a864 433c a72a 59bc 96b7 65bc
000000a0: 4af3 88bb e527 41bc 2227 a33b aeb9 f03a
000000b0: d114 6a3c c370 c63c bc9f 643c e62a 8c3c
000000c0: 1e77 8fbb 8d6f a03b bf27 96bc 3ff9 58bc
000000d0: d2a0 9cbc 69cf 3abc d2ca 093d 2d99 2ebc
000000e0: 5811 b03c d35e fd3c 1041 903b 0497 913c
000000f0: 8c62 7cbc 42f7 90bb 4eb3 f53c 37fc 863b
00000100: e004 1b3c e7db 3d3c 67aa fb3c 4b1e 2f3b
00000110: 5986 de3c 28f6 11bc 4d77 ce3c 10ba 933c
00000120: 4dd1 d53c 19e4 cd3c a57a d63b f815 59ba
00000130: 61b5 6f3c d643 c03c a908 12bc 23b2 2b3c
00000140: 20ed a3bb 5e17 0b3b 8d2f a33a cd49 c83c
00000150: e872 fc3b af3e 153d 5fa4 1f3c dc14 723b
00000160: fbfc 9dbb 3f73 febb dd20 403c 5e9c 093d
00000170: da5a aa3c 0db6 da3c c661 c93c 379a ad3c
00000180: a8ac 1c3d b7b7 26bb 9b62 f33c 8691 bf3c
00000190: 7647 3d3c caa9 38bc 25ad 13bc 275e 813c
000001a0: 6604 973b 67ee e23c 809d c93c e220 15bc
000001b0: f1e8 ee3c 4615 213d ef95 703b 1987 ed3c
000001c0: e9b2 69bc a8b3 1bbc f3dc 3abc 1cd4 b23c
000001d0: 0872 173c 769e 683c 6fad 5abc e76e a53c
000001e0: 374c 2bbc 4044 bf39 a903 b13b 01b2 95bb
000001f0: 567c 003d 1373 bebb c0cc 44bc 08f4 3cbc
00000200: 51d2 fa3b 7780 b1bb 8b44 93bc d691 f7bb
00000210: 2a5d 293b 799d 0f3c 0fd0 ffbb dc93 92bb
00000220: 7bdd 383c 3e87 71bb 1566 85bc fa12 453c
00000230: ef12 02bb 382c 213c 758b bcbc 752c eebb
00000240: 2c26 3bb9 75cf c6bc 67d1 d4bc 4053 9dbc
00000250: 0c96 d23b 0be2 c33c e455 d53b 14d9 a0bc
00000260: 00d4 8c3c 90c7 5c3c 5d10 dd3c 78b4 bdbc
00000270: 12c3 853b c0b7 813b e117 37bc 64c3 b3ba
00000280: fd73 11bc d2a2 c0bb a0d1 19bc 7f73 163c
00000290: 42b6 47ba 3d01 283c 8af4 523c 1c1b 9d3c
000002a0: ee49 713c 2678 163c bd43 38bc 4b76 653c
000002b0: 883f 603b e5b9 b6bc f630 c0bc aba9 c4bc
000002c0: 08d4 1f3c 2cf5 94ba 286a fabb d293 6dbb
000002d0: 5245 f0bb 8c65 2dbc 5641 26bc c38d f0bb
000002e0: aee0 67bc 85fc 41bc 40bb a8bc cb84 bcbc
000002f0: 2659 13bd 082a 07bd 15f9 aebc a4a7 ebbb
00000300: 2de6 acbc d0ce dfbb 306c cfbb f43d 50bc
00000310: 5948 08bd cc78 b2bc facb 16bd 7593 c2bc
00000320: 5cb8 cd3a 48c3 6bbb 9b9e 1cbd a37b 13bd
00000330: dfb2 2fbd d0df e6bc 4a7a afbb c7fb c9bc
00000340: cdcc 00bd 9aaa fdbc 0166 6ebc 04e2 7abb
00000350: 64ab 24bd 83fd beb9 df45 a13c 0c06 24b9
00000360: 8f7c 17bc 7288 51bc 13d6 16bc f6c6 b73a
00000370: 6407 283c e004 dfbb 8002 63bc a44a 58bc
00000380: 5f03 37bd a63e 6cbb 16f9 8bbc 4e54 fcbb
00000390: 6198 b23b 2dac 613c 15bd 0aba bcce a4bb
000003a0: 9409 4a3c ca05 e7bc a6c8 6cbb 5cef 0ebd
000003b0: a15b 643b 217a adba 8c68 b7ba 8e1c 75bc
000003c0: de73 d53c 8d1f 20bb c256 2f3c d411 0b3c
000003d0: 3514 8a3c 72c9 053d 8145 bfbc 0104 00bd
000003e0: c901 25bc 06fb 61bc 6955 063b 0e61 42bb
000003f0: 6364 88bc 5d36 96bc 429f e23b b1d3 86bb

classifier.1.bias f4 [3]
0.02164756 0.00599298 -0.023612067
00000000: 3956 b13c c360 c43b 186e c1bc
