3_computervision/models/03_pytorch_computer_vision_model_2.pth (torch, 22322 bytes, 10 tensors)

block_1.0.weight f4 [10, 1, 3, 3]
0	0xbf129df8	-0.5727229
1	0x3f510a0d	0.8165596
2	0x3ed81bf5	0.4220883
3	0xbe810735	-0.2520081
4	0x3e6aafc0	0.22918606
5	0x3d80fbcc	0.062980264
6	0xbf341706	-0.7034763
7	0x3d8ce386	0.06879334
8	0x3ecb0a5c	0.3965634
9	0xbe89186c	-0.26776445
10	0xbdf19259	-0.11795492
11	0xbe00ebf5	-0.1259001
12	0xbdd2d69d	-0.102948405
13	0x3e6ee730	0.23330379
14	0xbd00e098	-0.03146419
15	0x3d2e761f	0.042593118
16	0xbe989bea	-0.29806453
17	0xbe678c52	-0.22612122
18	0x3d4fa77e	0.050696842
19	0xbeb757e6	-0.3580925
20	0x3d942d8d	0.072352506
21	0xbf244a54	-0.64175916
22	0xbf5e198f	-0.8675775
23	0xbecd302b	-0.40075812
24	0x3eac7491	0.33682683
25	0xbed5a4aa	-0.4172719
26	0xbf067878	-0.5252757
27	0xbf312811	-0.6920176
28	0xbf22ad40	-0.6354561
29	0xbcfa2a4a	-0.030537743
30	0xbf484bc3	-0.78240603
31	0xbf54e3ad	-0.83159906
32	0xbf2a3288	-0.66483355
33	0x3ca63876	0.020290595
34	0x3e39cfa6	0.18145618
35	0x3e9a51ec	0.30140626
36	0xbd9d571c	-0.076826304
37	0xba9b004a	-0.0011825648
38	0xbd97fd96	-0.074214146
39	0xbda00dca	-0.0781513
40	0x3c9f1a15	0.019421617
41	0xbe1bf774	-0.15231115
42	0x3e8a491e	0.2700891
43	0x3d005405	0.031330127
44	0x3e4d1d57	0.20030724
45	0xbdb1408a	-0.08654888
46	0x3f37d601	0.7181092
47	0x3e0c82c0	0.13721752
48	0xbf10e0e2	-0.56593144
49	0x3e1565ab	0.14589565
50	0x3d82e7b6	0.063918516
51	0xbf537a4a	-0.82608473
52	0xbd9c8637	-0.07642787
53	0x3eca4980	0.395092
54	0x3edb6145	0.42847648
55	0x3eb97fd9	0.36230353
56	0x3f06a53a	0.52595866
57	0x3e15be24	0.14623314
58	0xbee6aa7d	-0.45051947
59	0xbe552a69	-0.2081696
60	0xbf13e14d	-0.57765657
61	0xbf8c4846	-1.0959556
62	0xbe9cc75c	-0.3062085
63	0x3deeee1c	0.116665095
64	0xbe5dd7c6	-0.21664342
65	0xbccaa5d0	-0.024737269
66	0xbe1ec468	-0.1550461
67	0xbd78db40	-0.060755968
68	0xbd939920	-0.07206941
69	0x3dd83de4	0.1055868
70	0x3d6c3fa0	0.057677865
71	0xbe676dfe	-0.22600552
72	0x3e3b401f	0.18286179
73	0x3cbcb915	0.023037473
74	0xbe38775e	-0.18014285
75	0xbe45cffe	-0.19317624
76	0xbc38d652	-0.011281567
77	0x3de135cd	0.1099659
78	0xbe9d788a	-0.30756027
79	0xbd9f3c00	-0.07775116
80	0xbe76645f	-0.24061726
81	0xbf6be25b	-0.92142266
82	0xbf33df5c	-0.70262694
83	0xbf0bcc6a	-0.54608786
84	0xbf3457f0	-0.7044668
85	0xbf8999d1	-1.0750066
86	0xbf92b444	-1.1461263
87	0x3f1d25a5	0.61385566
88	0xbf094bc8	-0.5363126
89	0xbef3f353	-0.4764658

block_1.0.bias f4 [10]
0	0xbd687ec3	-0.056761514
1	0xbdb67f8e	-0.08911048
2	0x3e9dfe27	0.30857965
3	0x3e5e7602	0.21724704
4	0xbe6686b5	-0.22512324
5	0x3e3e1940	0.1856432
6	0x3df8a304	0.12140468
7	0xbe91d4f3	-0.2848278
8	0xbdcef4a1	-0.10105253
9	0x3e943e96	0.28954

block_1.2.weight f4 [10, 10, 3, 3]
0	0x3e063f64	0.13110119
1	0x3ec1038d	0.37698022
2	0xbebd5823	-0.36981305
3	0x3ddaebe0	0.10689521
4	0x3e73f723	0.23824744
5	0xbeb0dacb	-0.34541926
6	0xbda99bbc	-0.08281657
7	0x3e6fcef0	0.23418784
8	0xbe39f392	-0.18159321
9	0xbd125452	-0.035724945
10	0xbdac1997	-0.084033184
11	0xbdbf268d	-0.09333525
12	0x3d4cbdd0	0.049985707
13	0x3d9d82a8	0.07690936
14	0xbd23fd0a	-0.04003624
15	0x3b7926f5	0.0038017605
16	0xbd83a0a3	-0.064271234
17	0x3d7a2b5f	0.06107652
18	0xbd726fea	-0.05918876
19	0xbda89579	-0.08231635
20	0xbda0d516	-0.07853143
21	0x39ebc1af	0.00044966998
22	0xbb7c1c8a	-0.003846916
23	0xbdf8d41e	-0.12149833
24	0xbc8e618b	-0.017380496
25	0xbd8615b1	-0.06547106
26	0xbd0938b8	-0.033501357
27	0x3d5c8069	0.0538334
28	0x3cdf4d31	0.027258487
29	0x3d4fe1a5	0.0507523
30	0xbd075bef	-0.03304666
31	0xbcb103a0	-0.021608174
32	0x3d047989	0.032342467
33	0x3d1a790d	0.0377131
34	0xbdc55014	-0.09634414
35	0x3ce1376a	0.027492244
36	0xbda7693e	-0.0817437
37	0x3d3f9bdd	0.046779502
38	0x3dc398cc	0.09550628
39	0x3c52be94	0.01286282
40	0x3d627a31	0.055292312
41	0x3daa9345	0.08328871
42	0x3cfa9267	0.030587388
43	0xbd20c22f	-0.039247688
44	0x3c727966	0.014799451
45	0x3e214a8b	0.15751092
46	0x3e3cd8f3	0.18442135
47	0xbeca3a1c	-0.3949746
48	0x3dbe52c0	0.09293127
49	0x3e5033ea	0.20332304
50	0xbe885df1	-0.26634172
51	0x3e06b37c	0.13154405
52	0x3e64f744	0.2235995
53	0xbeb18c65	-0.34677425
54	0xbd903021	-0.0704043
55	0x3caa19fa	0.02076434
56	0x3cbac3fb	0.022798529
57	0x3d55fc26	0.05224242
58	0x3c8582cf	0.016297726
59	0xbcd942b5	-0.026521066
60	0x3d0efa43	0.034906637
61	0xbd8d6daf	-0.06905686
62	0x3ddca500	0.10773659
63	0x3dd57d2b	0.104242645
64	0x3d3e5472	0.046467252
65	0x3d569336	0.052386485
66	0xbd3d2a7a	-0.046183087
67	0x3d1f1b4a	0.038844384
68	0x3c12c6d0	0.008958533
69	0x3d9340d3	0.071900986
70	0x3c4a0588	0.01233042
71	0x3dc0f299	0.09421272
72	0xbcc9c285	-0.024628887
73	0x3dc79cb4	0.097466856
74	0x3dd8bf7b	0.10583397
75	0x3c3f166f	0.011663063
76	0xbda1b72b	-0.07896265
77	0x3a838e29	0.0010036874
78	0x3da944c0	0.08265066
79	0xbd95f947	-0.073229365
80	0xbd18dca3	-0.03731979
81	0x3d5227dd	0.051307548
82	0xbb0a1dda	-0.0021074922
83	0x3d3af061	0.0456394
84	0x3d2ca2a0	0.04214728
85	0xbcffdd0f	-0.031233339
86	0xbd0bfb32	-0.034175105
87	0x3c50f872	0.0127545465
88	0xbddbb90d	-0.10728655
89	0xbd96a9aa	-0.073565796
90	0xbec2877c	-0.3799399
91	0xbe4d9df5	-0.20079787
92	0xbe82e66b	-0.2556642
93	0xbe030620	-0.12795305
94	0xbe364998	-0.17801511
95	0xbb0baf13	-0.002131407
96	0x3ddb3847	0.107040934
97	0x3d7b90c8	0.06141737
98	0x3de544f5	0.11194793
99	0xbd6cc2e4	-0.05780305
100	0xbd85b4a2	-0.065285936
101	0x3d8c1996	0.06840818
102	0xbd194798	-0.037421793
103	0x3d6ea082	0.05825854
104	0x3dcd76ca	0.10032423
105	0x3dcafd3d	0.099115826
106	0xbda781c8	-0.08179051
107	0x3bfafd7b	0.0076596118
108	0xbd8677a8	-0.06565791
109	0x3e39c7de	0.1814265
110	0x3e9af3c3	0.302641
111	0xbde7fc73	-0.11327448
112	0x3cc6dadd	0.024274284
113	0x3ded7798	0.11595076
114	0xbc9eecd9	-0.019400047
115	0xbd1c48e8	-0.038155466
116	0x3e0551d8	0.13019502
117	0xbc261bc4	-0.010138456
118	0x3e007880	0.12545967
119	0x3eb9ffb2	0.36327893
120	0xbaad4269	-0.0013218644
121	0x3c62c3df	0.013840645
122	0x3e8fb628	0.28068662
123	0x3d86193c	0.06547782
124	0x3c1d7ce9	0.0096123
125	0x3e0a8c24	0.13530022
126	0x3d32fc6b	0.043697756
127	0x3d8959c7	0.06706577
128	0xbc83a6fd	-0.016070837
129	0x3caf6adb	0.021413257
130	0xbdb153d8	-0.0865857
131	0xbdcec0bc	-0.10095355
132	0x3d881705	0.066450156
133	0xbd1ef88b	-0.038811248
134	0x3dc00784	0.093764335
135	0xbe5153ac	-0.20442075
136	0xbe18dce3	-0.14928012
137	0xbdd1d8fb	-0.10246464
138	0xbc77441a	-0.01509192
139	0xbe92c2f2	-0.28664356
140	0xbe0f492c	-0.13992757
141	0x3e39e3a9	0.18153252
142	0xbcd1a13c	-0.025589578
143	0xbdb3edba	-0.08785577
144	0x3da5220e	0.08063136
145	0x3cfbbdb6	0.03073011
146	0x3e6d3fe2	0.231689
147	0x3b504655	0.0031780202
148	0xbdb2d220	-0.087314844
149	0x3e0e4711	0.13894297
150	0xbe1f02be	-0.1552839
151	0xbe89c10a	-0.2690509
152	0xbb9fc644	-0.00487593
153	0xbd2eb938	-0.042657107
154	0x3d1430c2	0.03617931
155	0xbd5b8c74	-0.053600743
156	0x3dc173a5	0.094458856
157	0x3d981ca9	0.074273415
158	0x3d94fe41	0.072750576
159	0x3d5352ce	0.05159264
160	0x3db4b437	0.08823436
161	0x3d0d299a	0.034463502
162	0x3c976033	0.018478489
163	0xbcb6605e	-0.022262748
164	0x3daf574f	0.08561575
165	0xbdd08cd5	-0.101831116
166	0x3d9a3ca9	0.07531101
167	0xbc266193	-0.010155099
168	0xbbaa022e	-0.005188248
169	0xbd8c597f	-0.068530075
170	0xbd397154	-0.045274094
171	0x3ddd9915	0.10820214
172	0x3e9e4d9e	0.30918592
173	0x3ed782f2	0.4209209
174	0xbd1ba83b	-0.038002234
175	0xbbd05709	-0.0063580316
176	0x3ea51106	0.3223955
177	0xbcf3f92a	-0.029781897
178	0x3baad4f7	0.0052133757
179	0x3d84e216	0.06488435
180	0xbd8d2975	-0.06892673
181	0x3dc1c1b0	0.09460771
182	0xbdccc747	-0.09998947
183	0xbd770f74	-0.06031747
184	0x3e13b1d3	0.14423303
185	0xbd7d5c9c	-0.061855897
186	0xbebc536f	-0.36782405
187	0x3e080fc5	0.13287266
188	0x3e6d7d69	0.23192371
189	0xbd1ca264	-0.038240805
190	0x3c04e062	0.008110138
191	0x3b3da06e	0.0028934735
192	0xbcb97036	-0.022636514
193	0x3dadfd94	0.08495632
194	0x3cdc39a1	0.026882948
195	0x3ca4d2f2	0.020120118
196	0xbb4f9c76	-0.0031678951
197	0xbb09ba0c	-0.0021015434
198	0x3e0ec3a3	0.13941817
199	0x3c842d0c	0.016134761
200	0xbcd712a4	-0.026254006
201	0x3dc712f8	0.09720415
202	0x3dac218a	0.084048346
203	0xbdabcf3a	-0.08389135
204	0x3c0e10ac	0.008670967
205	0x3d9454c1	0.07242728
206	0xbd8681e1	-0.06567741
207	0xbd6a754e	-0.057240777
208	0x3e29970e	0.16561529
209	0xbdbfc253	-0.09363236
210	0x3e302d87	0.17204867
211	0xbd9393a6	-0.07205896
212	0xbdc9085d	-0.09816048
213	0x3daeb7fd	0.08531187
214	0x3c097503	0.008389714
215	0xbdec0d65	-0.11525992
216	0x3d108233	0.035280418
217	0xbd965720	-0.073408365
218	0xbd69a664	-0.057043448
219	0xbdd47d8f	-0.10375511
220	0xbd7819e5	-0.06057157
221	0xbdc6857a	-0.096934274
222	0x3da7ef85	0.081999816
223	0xbd6303d7	-0.055423584
224	0x3c26f9e3	0.010191414
225	0xbe346c26	-0.1761938
226	0x3db30459	0.087410636
227	0xbc437f6d	-0.011932236
228	0xbddfd274	-0.109288126
229	0x3e51ada2	0.20476392
230	0xbc52299f	-0.012827306
231	0xbed3c5da	-0.41361886
232	0x3e01bb74	0.12669164
233	0x3e6f2384	0.23353392
234	0xbd20a7aa	-0.039222397
235	0x3e291f65	0.16515882
236	0xbdf54e95	-0.11977879
237	0xb8bb98b0	-8.945295e-05
238	0x3d573a6f	0.05254596
239	0x39fc5f88	0.00048136362
240	0x3d063ff2	0.032775827
241	0x3d6f4be9	0.058422003
242	0xbd3b38a7	-0.045708325
243	0xbd0b0b06	-0.03394606
244	0x3dd03305	0.10165981
245	0xbbf6a7d0	-0.007527329
246	0x3daf0303	0.08545496
247	0x3c265c98	0.010153912
248	0x3d19d9a2	0.037561066
249	0x3d78cdea	0.06074325
250	0xbdc6b304	-0.09702113
251	0xbd429d11	-0.04751307
252	0xbda49f7c	-0.08038232
253	0x3dd162c6	0.10223918
254	0x3d1e44f9	0.038639996
255	0xbd39bb0a	-0.04534439

block_1.2.bias f4 [10]
0	0xbc563e0c	-0.013076317
1	0x3e2d0ae4	0.16898686
2	0xbd49160f	-0.049093302
3	0xbd6f0a74	-0.05835958
4	0xbc025aa3	-0.00795618
5	0xbdbf14ed	-0.09330163
6	0xbcc08adf	-0.023503719
7	0xbd89f345	-0.06735853
8	0x3e0669dc	0.1312632
9	0xbdc5dc74	-0.09661189

block_2.0.weight f4 [10, 10, 3, 3]
0	0x3ccebb27	0.025235726
1	0x3dd80c0b	0.10549172
2	0xbc49b39a	-0.012310887
3	0x3cd97476	0.02654479
4	0xbd24415d	-0.040101398
5	0xbd5ade05	-0.05343439
6	0xbdb6b124	-0.08920506
7	0x3d7d3e8f	0.06182724
8	0xb9d2a578	-0.00040177605
9	0x3d158536	0.036503993
10	0xbda57f01	-0.08080865
11	0xbdb392a4	-0.08768204
12	0xbdc41043	-0.09573414
13	0xbd78dd6f	-0.06075805
14	0xbc5e3751	-0.013562993
15	0xbc81318a	-0.015770692
16	0x3d3e162e	0.04640787
17	0xbd4f2951	-0.05057651
18	0x3dd663f8	0.10468286
19	0xbd4598c9	-0.04824141
20	0xbdca8850	-0.09889281
21	0x3da7f3b8	0.082007825
22	0xbd8a9c90	-0.06768143
23	0x3c253b7b	0.010084982
24	0xbc112408	-0.008858688
25	0xbcafd909	-0.021465795
26	0x38634836	5.418827e-05
27	0xbdd3d399	-0.103430934
28	0x3dc39b0d	0.09551058
29	0xbd8c07ce	-0.06837426
30	0x3d83e245	0.06439642
31	0xbd7d3cf4	-0.061825708
32	0xbcd42699	-0.025897311
33	0xbb1cf058	-0.0023946967
34	0xbd28e4e0	-0.041233897
35	0xbd3aa4b7	-0.04556724
36	0xbdb3bd1c	-0.08776304
37	0xbd94184c	-0.07231197
38	0xbb93e9f2	-0.0045139724
39	0xbcf3c48b	-0.029756805
40	0xbc70c1f2	-0.014694678
41	0x3ce023ec	0.027360879
42	0xbc512ac2	-0.012766542
43	0xbdcc27cc	-0.09968528
44	0xbd1e5fe9	-0.038665686
45	0x3d0426fe	0.03226375
46	0x3d1b63ae	0.03793686
47	0x3d50ee39	0.051008437
48	0x3bbf4672	0.005837255
49	0x3d93975f	0.07206606
50	0xbd93ba52	-0.07213272
51	0xbdb529f9	-0.08845896
52	0xbce63c10	-0.028104812
53	0x3a3a5980	0.00071086735
54	0x3d9ca32e	0.076483116
55	0xbd78f3a6	-0.060779236
56	0xbd973d6b	-0.073847614
57	0xbaf44865	-0.0018637298
58	0x3cdcd1e5	0.026955554
59	0xbdc52312	-0.0962583
60	0xbd2b5596	-0.041829668
61	0xbda92f65	-0.08260993
62	0x3cc9ccb3	0.024633741
63	0x3c2f96d9	0.010717117
64	0xbdbf701c	-0.09347555
65	0xbd8fd764	-0.070235044
66	0x3bb98b4f	0.005662359
67	0xbce514ba	-0.027963985
68	0xbda6c263	-0.08142545
69	0xbd0068d0	-0.031349957
70	0xbdc64612	-0.096813336
71	0xbc3ff488	-0.011716016
72	0xbc45d46f	-0.012074574
73	0x3bbb7207	0.00572038
74	0x3c14c9a2	0.009081276
75	0xbc98cd07	-0.018652452
76	0x3dac72dc	0.08420345
77	0xbd19e420	-0.037571073
78	0x3d43805a	0.047729827
79	0x3d23395b	0.03984962
80	0xbc50ce49	-0.012744495
81	0xbd9e340a	-0.077247694
82	0xbdb5e686	-0.088818595
83	0x3cef06b4	0.029178001
84	0x3d038d8e	0.03211742
85	0x3d82ee77	0.0639314
86	0xbd3f1d67	-0.0466589
87	0x3dae5e4a	0.08514078
88	0x3dd7d9db	0.105395995
89	0xbc89580c	-0.016765617
90	0xbd635d29	-0.055508766
91	0xbc3376c2	-0.010953607
92	0xbdb790e0	-0.089631796
93	0x3ba2df1e	0.0049704453
94	0x3e2294f6	0.15877137
95	0xbc53201f	-0.012886076
96	0x3b8840fb	0.004158137
97	0x3d9b26bc	0.07575747
98	0xbcc9d1fc	-0.024636261
99	0x3d26c9df	0.040719863
100	0xbde4b46a	-0.11167224
101	0x3ea775cc	0.3270706
102	0x3c95f55f	0.018305479
103	0xbdf30681	-0.11866475
104	0x3d23165d	0.03981625
105	0x3d6fea49	0.05857304
106	0x3d379125	0.044816155
107	0xbcfc9b8f	-0.030835895
108	0x3da847a3	0.082167886
109	0x3d0c7a3b	0.034296256
110	0x3de3b103	0.11117747
111	0x3df5ea63	0.12007596
112	0x3d15e4ff	0.03659534
113	0xbde2e5e6	-0.11079006
114	0x3dda2f05	0.106534995
115	0x3dc8758a	0.09788044
116	0xbbeecdc6	-0.0072877137
117	0x3c5f9d3b	0.0136483265
118	0x3c7e755e	0.015530912
119	0xbcd81c73	-0.026380753
120	0x3dbde98e	0.09273063
121	0x3cffeff9	0.031242358
122	0xbdcff78a	-0.10154636
123	0x3dae7067	0.08517533
124	0xbd21da2b	-0.0395147
125	0x3d1ac5cb	0.037786286
126	0x3d975d0f	0.073907964
127	0xbe7ea2f6	-0.24866852
128	0x3eabdaf2	0.3356548
129	0x3da62620	0.081127405
130	0xbe3722f6	-0.1788443
131	0x3e0f71ea	0.14008299
132	0x3e59bdbb	0.21263783
133	0x3dacc114	0.08435264
134	0xbdab8b00	-0.083761215
135	0xbda61101	-0.08108712
136	0xbdc03ba7	-0.09386378
137	0x3d87c87f	0.066300385
138	0x3d7cc515	0.06171139
139	0xbd83d0d4	-0.06436315
140	0x3d22e2b0	0.039766967
141	0x3cb2f277	0.021844132
142	0xbd3a681a	-0.045509435
143	0x3b307df0	0.0026930533
144	0x3c500d38	0.012698464
145	0xbe44639e	-0.19178626
146	0x3dad059f	0.08448338
147	0x3d98d21d	0.07461951
148	0xbe0c274b	-0.13686864
149	0x3d17a3e7	0.037021544
150	0xbdc3978e	-0.09550391
151	0xbe8536eb	-0.26018462
152	0xbeb00e7a	-0.34386045
153	0x3cd53cee	0.02603003
154	0xbe0379f4	-0.1283949
155	0xbdbd5fe5	-0.09246806
156	0x3d817dcf	0.06322824
157	0x3d057a06	0.032587074
158	0xbdfe2139	-0.124086805
159	0xbd25ec89	-0.04050878
160	0x3d11d863	0.035606753
161	0xbe14f3ac	-0.14546078
162	0xbccaff4a	-0.024779934
163	0xbc6bf07e	-0.0144005995
164	0x3e325a2f	0.17417215
165	0x3cb2a1cd	0.021805668
166	0xbcfb8b4e	-0.030706074
167	0x3d06a0c4	0.03286816
168	0x3d0fcb83	0.035106193
169	0xbe087026	-0.13324031
170	0xbd46a12b	-0.048493546
171	0x3e012e82	0.12615398
172	0xbe7436f5	-0.2384909
173	0xbcc170fc	-0.023613445
174	0xbdee1596	-0.11625211
175	0xbc8e2d70	-0.01735565
176	0xbcb11f39	-0.021621333
177	0x3db389ee	0.087665424
178	0xbdd15632	-0.102215186
179	0xbdaea8ab	-0.085282646
180	0x3d37554c	0.04475908
181	0xbe2656ae	-0.16244003
182	0xbe0aaa3d	-0.13541503
183	0xbdbd6995	-0.09248654
184	0xbdc63e93	-0.09679904
185	0xbe655d4f	-0.22398876
186	0xbc57861b	-0.013154532
187	0x3d66bc69	0.056332026
188	0xbde3e64a	-0.111279085
189	0xbdee49af	-0.11635148
190	0xbe0f845d	-0.14015336
191	0xbe6ca0aa	-0.23108163
192	0xbc2c3fd5	-0.010513266
193	0x39c6484b	0.00037819365
194	0xbdaa1934	-0.08305588
195	0xbd36f83a	-0.04467032
196	0xbd8b1626	-0.06791334
197	0x3de3151c	0.11088011
198	0xbdd4da78	-0.10393232
199	0xbc8f9f78	-0.017532095
200	0x3c34765b	0.011014546
201	0xbdcdbfa1	-0.10046316
202	0xbd23a7f3	-0.03995509
203	0x3d09530b	0.03352646
204	0x3d8fa081	0.070130356
205	0x3d4b174b	0.04958276
206	0xbd104f6d	-0.035231996
207	0xbd9dcb31	-0.07704771
208	0xbd7db65b	-0.061941486
209	0xbc4d025d	-0.0125127705
210	0x3d41409f	0.047180768
211	0x3ca7f995	0.020504752
212	0xbdba09bc	-0.09083888
213	0xbdc37a94	-0.09544864
214	0xbdaa3cbd	-0.08312366
215	0x3dde9f4b	0.108702265
216	0xbdfa7954	-0.12230173
217	0xbd177821	-0.0369798
218	0xbddf5a5d	-0.10905907
219	0xbe234292	-0.15943363
220	0xbe5e99ad	-0.2173831
221	0xbda57c75	-0.08080379
222	0x3dcab82a	0.09898408
223	0x3e18afe6	0.1491085
224	0x3de7e63a	0.11323209
225	0xbdd7bdc9	-0.105342455
226	0x3c9e07c5	0.019290814
227	0xbd73cb9e	-0.059520356
228	0x3dc31df7	0.095272
229	0xbce54695	-0.027987758
230	0xbce89631	-0.02839193
231	0xbc7d7a75	-0.015471091
232	0x3dc7cbb3	0.097556494
233	0x3d3cf9ae	0.04613655
234	0xbe54042f	-0.20704721
235	0x3de741b4	0.11291829
236	0x3e302c37	0.17204367
237	0xbd8b8531	-0.068125136
238	0x3d2ea1d7	0.04263481
239	0x3aff4127	0.0019474373
240	0x3e28efa5	0.16497667
241	0x3ebe4073	0.37158546
242	0x3eb0517a	0.34437162
243	0x3c8d5b43	0.017255431
244	0x3b67f768	0.0035395268
245	0x3d6eb1ed	0.058275152
246	0xbd3ec980	-0.046578884
247	0xbd98e54b	-0.07465609
248	0xbdcb65b1	-0.099315055
249	0x3d4fa8b3	0.050697993
250	0x3d42bf0c	0.047545478
251	0x3d276b4b	0.040873807
252	0x3cc02451	0.023454817
253	0xbd38a8c2	-0.045082815
254	0xbd72ab88	-0.059245616
255	0xbdd27af1	-0.102773555

block_2.0.bias f4 [10]
0	0xbd857e8b	-0.06518277
1	0x3ceddc8b	0.029035827
2	0x3e4f64b0	0.20253253
3	0x3e4b27dc	0.19839424
4	0xbe43a2a8	-0.19105017
5	0xbe17e9d5	-0.14835294
6	0x3eaba43e	0.33523744
7	0xbd432c22	-0.04764951
8	0x3ea3f892	0.32025582
9	0x3f2d510b	0.67701787

block_2.2.weight f4 [10, 10, 3, 3]
0	0x3d720c5d	0.05909382
1	0xbcfdf01d	-0.030998284
2	0xbcd4ebb0	-0.02599129
3	0xbdcc241d	-0.099678256
4	0x3cf14bbe	0.029455062
5	0x3d13a37f	0.036044594
6	0x3d8da574	0.06916323
7	0x3c633793	0.01386823
8	0xbc252168	-0.010078765
9	0x3d2e46dc	0.042548046
10	0xbcadf062	-0.021232788
11	0x3e4f3dc8	0.20238411
12	0x3d2c70ee	0.042099886
13	0xbd939f0d	-0.07208071
14	0xbdb97e1a	-0.09057255
15	0x3cc57784	0.024104841
16	0x3e132d7d	0.14372821
17	0xbdbebe18	-0.09313601
18	0x3d58be8e	0.052916102
19	0x3dceaa06	0.10091023
20	0x3d8d506e	0.06900106
21	0x3cc62888	0.024189249
22	0xbdbe0028	-0.092773736
23	0x3c7b5d12	0.015342014
24	0x3b352288	0.002763899
25	0xbdac31df	-0.0840795
26	0xbe2dc415	-0.1696933
27	0xbdf140ed	-0.11779962
28	0x3e2c03d1	0.16798331
29	0x3e588bd8	0.21147096
30	0x3e22112e	0.15826866
31	0xbdb0d59c	-0.08634493
32	0x3e1aaf98	0.15106046
33	0x3e7508c0	0.23929119
34	0x3d416262	0.047212966
35	0x3d18db48	0.037318498
36	0x3d47ae6c	0.048750326
37	0xbc90fa0a	-0.017697353
38	0xbcfa649d	-0.030565554
39	0xbe1e4a66	-0.15458068
40	0x3d42baa2	0.04754127
41	0xbdd680ae	-0.104737625
42	0xbdb31669	-0.08744509
43	0x3dad8c48	0.08474022
44	0xbd1d8260	-0.038454413
45	0x3d9e3f51	0.077269204
46	0x3e1204a8	0.14259589
47	0x3e969d68	0.29416966
48	0xbaa6eaca	-0.0012734768
49	0x3d375956	0.04476293
50	0x3e20314c	0.15643805
51	0x3dd67f1a	0.104734614
52	0x3e167bf9	0.1469573
53	0x3e862c6b	0.26205763
54	0x3da9e36a	0.08295329
55	0xbe0a8576	-0.13527474
56	0xbdc922fd	-0.098211266
57	0xbd4c852b	-0.049931686
58	0xbc2aeec2	-0.010432901
59	0x3cc625aa	0.024187881
60	0x3d4e5874	0.050377324
61	0x3b8a1b2b	0.0042146645
62	0xbe0663d5	-0.1312402
63	0xbcad01b0	-0.021118969
64	0xbc76965b	-0.015050496
65	0xbda116a9	-0.0786565
66	0x3cc302c9	0.023805039
67	0x3d017394	0.031604365
68	0xbd5d0772	-0.05396218
69	0xbdeb4fce	-0.11489831
70	0xbd95bf4b	-0.07311877
71	0xbdcf3358	-0.10117215
72	0xbd026244	-0.031831995
73	0xbde4a810	-0.11164868
74	0xbe0ce0b8	-0.13757598
75	0x3e1bca9f	0.15214013
76	0xb973b233	-0.0002324067
77	0xbe08b015	-0.1334842
78	0x3a8a953d	0.0010573041
79	0xbe03a042	-0.12854102
80	0xbdc4440b	-0.09583291
81	0xbe4ad529	-0.19807877
82	0xbdfb1ce5	-0.122613706
83	0xbe6e40a8	-0.23266852
84	0xbda93c01	-0.08263398
85	0xbe7af6d5	-0.24508221
86	0xbe2d6913	-0.16934614
87	0xbdfca8af	-0.12336861
88	0xbe18cd81	-0.14922144
89	0xbe867629	-0.26262024
90	0xbdb4e544	-0.088327914
91	0x3daee706	0.08540158
92	0xbc10f97b	-0.008848543
93	0xbd687e35	-0.056760985
94	0x3dc9a4bb	0.09845873
95	0x3c5b1bb4	0.013373304
96	0xbccb6b95	-0.024831573
97	0x3cfadee4	0.03062386
98	0xbbd542d2	-0.0065082097
99	0xbbfec78a	-0.0077752518
100	0x3de9dbd3	0.11418881
101	0x3d364ea9	0.04450861
102	0x3d447592	0.047963686
103	0x3d0c4451	0.03424484
104	0xbd8c9096	-0.06863515
105	0x3b62d039	0.0034608974
106	0xbd38a1b1	-0.045076076
107	0x3d7afb19	0.06127462
108	0xbd87ced1	-0.06631244
109	0x3d9c1027	0.07620268
110	0xbac870b4	-0.0015292377
111	0x3dc1440a	0.094368055
112	0x3d6f1a7c	0.058374867
113	0x3db02ff3	0.086028956
114	0xbd552f8c	-0.052047297
115	0x3c9506cd	0.01819172
116	0x3e0e9ed5	0.13927777
117	0xbda6b1df	-0.08139395
118	0xbd940ee0	-0.072294
119	0xbdc214f9	-0.094766565
120	0xbe09169d	-0.13387533
121	0x3b11b598	0.0022233482
122	0xbd1bc09a	-0.038025476
123	0xbd3fc8f9	-0.04682252
124	0xbe2f6ea2	-0.17132047
125	0xbdab0680	-0.08350849
126	0x3e13934a	0.14411655
127	0x3c9c8bc1	0.019109609
128	0xbdb14be1	-0.08657051
129	0x3a7efe68	0.00097272405
130	0x3dbad444	0.09122518
131	0x3c84d9f6	0.016217213
132	0x3db0d269	0.086338826
133	0x3dfb76fb	0.12278553
134	0xbc93f33f	-0.018060325
135	0x3d4692d3	0.048479866
136	0xbccba216	-0.024857562
137	0xbca6d548	-0.020365372
138	0xbd8be302	-0.06830408
139	0x3d29abc5	0.041423578
140	0x3d0f5bc3	0.03499962
141	0x3b505221	0.0031787234
142	0xbdde267e	-0.108471856
143	0x3beb30b7	0.007177438
144	0xbe53daec	-0.20688981
145	0xbe68ed14	-0.22746688
146	0x3c84df68	0.01621981
147	0xbe0ffda9	-0.14061607
148	0xbe3d53e4	-0.18489033
149	0x3dd46f23	0.1037276
150	0x3e3b65bf	0.18300532
151	0x3e1e8cf4	0.15483457
152	0xbabd7064	-0.0014453051
153	0x3c4758ae	0.012167139
154	0x3e1b8ad7	0.15189682
155	0x3dd73b8a	0.10509403
156	0x3e3f5db3	0.18688087
157	0x3e697b52	0.22800949
158	0xbd8757ec	-0.06608567
159	0x3c3d2a76	0.011545768
160	0x3e88d15e	0.26722234
161	0xbdd95d9d	-0.106135584
162	0xbd14936b	-0.0362734
163	0xbcda0179	-0.02661203
164	0xbce39f3a	-0.027785886
165	0x3d3d9cec	0.04629223
166	0xbdd1a841	-0.1023717
167	0xbc85d02d	-0.016334618
168	0xbdaff694	-0.08591953
169	0x3db2e2aa	0.08734639
170	0x3da74be4	0.08168772
171	0xbdc375e9	-0.09543974
172	0xbd4afe21	-0.049558762
173	0x3d1ffaa0	0.039057374
174	0x3d91a7cd	0.071120836
175	0xbde9dd67	-0.11419182
176	0xbdc29db8	-0.09502739
177	0x3d12e605	0.035863895
178	0x3cc07e29	0.023497658
179	0xbdaa51a4	-0.08316353
180	0x3d250fa2	0.04029811
181	0x3b9d7ad1	0.0048059006
182	0xbd7017dd	-0.058616508
183	0xbda52a8f	-0.08064758
184	0xba84d26a	-0.0010133509
185	0x3d063da7	0.03277364
186	0x3d44c843	0.048042547
187	0x3d227233	0.03965969
188	0x3d97549a	0.07389183
189	0x3c40314a	0.011730501
190	0xbd81e501	-0.06342507
191	0xbd83a960	-0.0642879
192	0xbe634d84	-0.22197539
193	0x3dffb209	0.124851294
194	0xbe2a02f1	-0.16602685
195	0xbe055398	-0.1302017
196	0xbda878a2	-0.08226134
197	0xbe220d2b	-0.15825336
198	0xbd419ea3	-0.04727043
199	0x3dd0ba5d	0.10191796
200	0xbd571905	-0.052514095
201	0x3e17b599	0.14815368
202	0x3d68d8a8	0.056847245
203	0x3d9b6ee2	0.075895086
204	0xbd8373be	-0.064185604
205	0x3d927712	0.07151617
206	0x3e65383b	0.22384731
207	0xbe67de39	-0.22643365
208	0xbd0d3b7d	-0.03448056
209	0xbdb97084	-0.09054664
210	0xbe5e76da	-0.21725026
211	0x3ce9c5dc	0.02853673
212	0x3d4b7461	0.049671534
213	0xbe331cb0	-0.17491412
214	0x3e48aed3	0.1959794
215	0x3d46ad54	0.048505142
216	0xbd43ebe0	-0.04783237
217	0xbc76415d	-0.015030232
218	0xbd4e9edd	-0.050444473
219	0xbdcce0bc	-0.10003802
220	0x3cca9a33	0.024731731
221	0xbe4e80d4	-0.20166332
222	0xbcc4343c	-0.023950689
223	0x3d920edb	0.0713174
224	0x3ce3f99f	0.02782899
225	0xbbed6142	-0.00724426
226	0xbd50b74a	-0.050956048
227	0xbe89741b	-0.26846394
228	0x3e0a4d1d	0.13505979
229	0xbc03e507	-0.00805021
230	0xbded3a8e	-0.11583434
231	0x3e9952fc	0.29946125
232	0x3e612fed	0.21990938
233	0xbd1bedb7	-0.0380685
234	0x3d84488d	0.064591505
235	0xbd4989e2	-0.04920376
236	0xbe50e837	-0.20401083
237	0x3d861dbb	0.065486394
238	0xbe05d399	-0.13069
239	0xbe36387b	-0.17794983
240	0x3e35a3e8	0.17738307
241	0xbe4449f5	-0.19168837
242	0xbe905cde	-0.28195852
243	0xbe8ea41a	-0.27859575
244	0xbe2f19cc	-0.17099684
245	0xbe1091f6	-0.1411818
246	0xbe075ad1	-0.13218237
247	0xbe59a562	-0.21254495
248	0xbe790e85	-0.24321945
249	0x3e868e62	0.26280504
250	0x3e2ffcc7	0.1718627
251	0x3de50961	0.111834295
252	0xbe6175dd	-0.22017618
253	0x3e25fac9	0.16208948
254	0x3c3b8abf	0.011446654
255	0xbe330c12	-0.17485073

block_2.2.bias f4 [10]
0	0xbd610570	-0.054936826
1	0x3cc31fc1	0.023818852
2	0x3baa51fc	0.0051977616
3	0x3de44c51	0.11147369
4	0x3d4fe7db	0.050758224
5	0xbda9ca92	-0.0829059
6	0x3e4095d8	0.18807161
7	0xbdf7404b	-0.1207281
8	0x3c0d73c0	0.008633554
9	0xbda7b8c4	-0.08189538

classifier.1.weight f4 [10, 160]
0	0xbd622c1e	-0.055217855
1	0xbd722fde	-0.05912768
2	0x3d6abf30	0.057311237
3	0x3e090e6b	0.13384406
4	0x3db2f6a6	0.08738451
5	0xbdb0d163	-0.08633687
6	0x3e19606d	0.1497819
7	0x3c1448fe	0.009050606
8	0x3d314650	0.043279946
9	0xbde23764	-0.11045721
10	0x3df2d7bd	0.11857555
11	0xbcf0027f	-0.029298065
12	0xbe62adcd	-0.22136612
13	0xbdec1971	-0.1152829
14	0x3d7e50ad	0.062088657
15	0xbd908591	-0.07056726
16	0xbdb18884	-0.086686164
17	0x3dbef0ff	0.0932331
18	0x3d002f3d	0.03129505
19	0xbd6b876e	-0.057502203
20	0xbc87be75	-0.01657031
21	0x3e0c0323	0.13673072
22	0xbc057c11	-0.0081472555
23	0xbd41abcc	-0.04728298
24	0xbdf35b41	-0.1188264
25	0x3da46bf9	0.08028407
26	0x39dac9b4	0.0004173048
27	0x3c8f2803	0.017475134
28	0x3d5bc577	0.053655114
29	0x3cfead0c	0.031088375
30	0x3e27c59e	0.16383979
31	0xbd2fd4c5	-0.042927522
32	0x3e8ec306	0.27883166
33	0xbde5be12	-0.11217894
34	0x3e199bc5	0.15000828
35	0x3cadcba6	0.021215271
36	0x3ddcbc0e	0.10778056
37	0xbe077c9e	-0.13231131
38	0x3c973095	0.018455783
39	0xbd436f45	-0.047713537
40	0xbd21657f	-0.039403435
41	0xbd64d7e3	-0.055869948
42	0x3c4643bf	0.012101113
43	0x3d0bb18c	0.03410487
44	0xbe167c0d	-0.14695759
45	0x3d999341	0.074987896
46	0x3d577414	0.052600935
47	0xbdde539f	-0.10855793
48	0xbe5ab22b	-0.21357028
49	0xbe8e6988	-0.2781489
50	0x3e933771	0.28753236
51	0x3e63619f	0.22205208
52	0x3def3d21	0.11681581
53	0xbe3ef124	-0.18646675
54	0x3dd5f5e3	0.1044729
55	0x3d9ed222	0.077549234
56	0x3e44ad8e	0.19206831
57	0xbd9a8bcc	-0.075461954
58	0xbd2dd433	-0.042438697
59	0x3d1e7f76	0.038695775
60	0xbe596339	-0.21229257
61	0xbe52e95c	-0.20596832
62	0xbe17bb73	-0.148176
63	0xbf179644	-0.5921366
64	0xbd8165eb	-0.063182674
65	0x3e79033f	0.24317645
66	0x3cedd622	0.02903277
67	0x3ec1f658	0.37883258
68	0xbe56cc0b	-0.20976274
69	0x3e52371a	0.20528832
70	0x3cf8af80	0.030357122
71	0x3e99ee4b	0.30064616
72	0xbe0381ad	-0.12842436
73	0x3e32a3a6	0.1744524
74	0xbdb77aa0	-0.08958936
75	0x3d0a0e9b	0.033705335
76	0xbce17c61	-0.027525129
77	0xbd1f0cf2	-0.038830705
78	0xbe8cb82c	-0.27484262
79	0xbd55a27f	-0.05215692
80	0x3ebf7414	0.37393248
81	0x3dc65bd1	0.09685481
82	0xbd95aa31	-0.07307852
83	0x3dfb42d6	0.12268607
84	0x3dbc457e	0.09192942
85	0xb998d9b4	-0.000291539
86	0xbe6ccded	-0.2312543
87	0xbe045ea2	-0.12926725
88	0x3d2e09a1	0.04248965
89	0xbe172ed0	-0.14763951
90	0x3c9c5db3	0.019087648
91	0x3e4e992e	0.20175621
92	0xbdcc91b9	-0.09988732
93	0xbe2c5aa5	-0.16831453
94	0x3e0dd186	0.13849458
95	0x3ea90377	0.33010456
96	0x3d2c53af	0.042071994
97	0x3df4c768	0.11952096
98	0x3c56621b	0.013084914
99	0x3e9402e1	0.28908446
100	0x3e67950d	0.22615452
101	0x3e054480	0.13014412
102	0xbd96f2e5	-0.07370547
103	0x3e387b21	0.1801572
104	0x3d2c9262	0.04213179
105	0x3e15c39b	0.14625399
106	0xbeab9f65	-0.33520046
107	0xbe6ad170	-0.22931457
108	0x3dc9b70b	0.09849366
109	0x3e8ca3e3	0.27468786
110	0xbd69e60d	-0.05710416
111	0xbe7e622f	-0.24842142
112	0x3c34bb51	0.011030988
113	0x3c73e4d3	0.014886099
114	0x3cfe47d0	0.031040102
115	0x3da6f99e	0.081530795
116	0xbe963851	-0.2933984
117	0xbbabfedf	-0.005248889
118	0x3e119064	0.14215237
119	0xbc478a97	-0.0121790385
120	0x3d4f926b	0.050676744
121	0xbd4c63a2	-0.049899705
122	0x3d4957ee	0.049156122
123	0xbd611e8f	-0.054960784
124	0x3e887734	0.26653445
125	0xb9a283a0	-0.00030997116
126	0x3d8bf6cc	0.06834182
127	0xbd43b76e	-0.047782354
128	0x3dba0f6f	0.09084975
129	0xbe4bb009	-0.19891371
130	0x3d5a970b	0.053366702
131	0x3e103b4e	0.14085123
132	0x3d825d9b	0.0636551
133	0xbdc7f83f	-0.09764146
134	0x3e78078a	0.24221626
135	0x3eab86f4	0.335014
136	0x3d50bf19	0.050963495
137	0xbd3980ff	-0.045289036
138	0x3ddf9f61	0.10919071
139	0x3e0c8b81	0.13725092
140	0xbe0d7f05	-0.13817985
141	0xbea0c221	-0.3139811
142	0xbd6ba4fc	-0.05753039
143	0x3e96bea2	0.29442316
144	0xbe97e560	-0.29667187
145	0x3dc5406b	0.096314274
146	0xbd637966	-0.055535696
147	0xbf3e018a	-0.742211
148	0xbe3f8466	-0.1870285
149	0xbd096a49	-0.033548627
150	0xbe4bb5e9	-0.19893612
151	0x3ec1acc2	0.37827116
152	0x3d9fb821	0.07798792
153	0xbcca566f	-0.024699418
154	0x3d9880f9	0.074464746
155	0x3f1c4313	0.6103985
156	0xbeb71be2	-0.3576346
157	0x3e27a642	0.16372016
158	0x3dd3be1e	0.10338996
159	0x3f303293	0.6882717
160	0x3d116f13	0.03550632
161	0x3cbe1743	0.023204451
162	0xbcdedf4c	-0.027206086
163	0xbde4b1f6	-0.11166756
164	0x3cfffc68	0.031248286
165	0x3d194fee	0.037429743
166	0xbbe2c0b4	-0.0069199447
167	0xbdd3a1a6	-0.10333566
168	0x3d74fcee	0.059811525
169	0x3e854fcd	0.26037446
170	0xbe1c278b	-0.1524946
171	0xbd482ef5	-0.048872907
172	0x3e1f38ec	0.15549058
173	0x3ea6e190	0.32593966
174	0xbdbf4582	-0.093394294
175	0xbdc6efc6	-0.09713702
176	0xbe0a2c40	-0.13493443
177	0xbd6ba2e8	-0.057528406
178	0xbd15becf	-0.036558922
179	0x3d651d57	0.055936184
180	0xbd2956ca	-0.041342534
181	0xbd93b0af	-0.07211434
182	0x3d4b645a	0.04965625
183	0xbd21ee67	-0.039534
184	0xbd9b36e1	-0.07578827
185	0xbe2479cf	-0.16062091
186	0x3ccaba3a	0.024747003
187	0xbda3368c	-0.07969388
188	0xbd6ce2f6	-0.057833634
189	0xbdd5fd29	-0.10448677
190	0xbda097b8	-0.07841438
191	0x3dbd732a	0.092504814
192	0x3df88ecc	0.12136611
193	0x3e456bc3	0.19279389
194	0x3eae26af	0.34013888
195	0xbe119a0a	-0.14218917
196	0x3d2f52d8	0.042803615
197	0x3d973ef0	0.07385051
198	0x3e96479c	0.2935151
199	0xbe265902	-0.16244891
200	0x3d3dfc82	0.04638339
201	0xbe26947f	-0.16267584
202	0x3e47a4a8	0.19496405
203	0xbcd8f203	-0.026482588
204	0xbd5c84c1	-0.05383754
205	0xbe76e207	-0.2410966
206	0x3e794441	0.24342443
207	0xbd81cc63	-0.06337812
208	0x3e02cd0e	0.12773535
209	0xbedf865b	-0.43657193
210	0xbd89c67f	-0.06727313
211	0xbe339ee9	-0.17541088
212	0xbdafdb46	-0.08586745
213	0x3c51d20e	0.012806429
214	0xbd83cd29	-0.064356156
215	0xbdf4dad2	-0.11955799
216	0xbd845eee	-0.06463419
217	0x3e8c2139	0.27369097
218	0x3da9854d	0.08277378
219	0xbe2f9643	-0.17147164
220	0x3e9c4ca5	0.30527225
221	0x3f32690e	0.6969155
222	0x3ed2a871	0.41144136
223	0xbe53d6bc	-0.20687383
224	0xbbd27afc	-0.0064233523
225	0x3c7db2ac	0.015484493
226	0xbcd4ba93	-0.025967872
227	0xbd1c36cd	-0.0381382
228	0xbe416b15	-0.18888505
229	0xbe1ef250	-0.15522122
230	0xbd754184	-0.059876934
231	0xbd55bc83	-0.052181732
232	0xbe5462d9	-0.20740832
233	0xbcf525b2	-0.029925201
234	0xbe298322	-0.1655393
235	0xbd91f231	-0.071262725
236	0xbe500a9f	-0.20316552
237	0xbd88feb9	-0.066892095
238	0xbddedb9e	-0.108817324
239	0xbceb4382	-0.028718714
240	0xbe62061c	-0.22072643
241	0xbe1de4e3	-0.15419345
242	0x3c4d52f8	0.012531988
243	0x3d0e56e3	0.03475083
244	0xbdbcd841	-0.09220935
245	0xbdc7e166	-0.09759788
246	0x3d3657bb	0.04451726
247	0x3dcbbdfc	0.09948346
248	0x3d92366b	0.07139286
249	0x3e4706a4	0.19436127
250	0x3e896270	0.26832914
251	0xbde7f98a	-0.11326893
252	0x3d8ef4bc	0.06980273
253	0x3f098009	0.5371099
254	0x3ef0d04f	0.47033927
255	0xbe20ef04	-0.15716177

classifier.1.bias f4 [10]
0	0x3d05996e	0.032617025
1	0xbe9be4e8	-0.3044808
2	0x3eca801f	0.39550874
3	0x3d1a395c	0.03765236
4	0xbe7c8b2f	-0.2466247
5	0xbe942f72	-0.28942448
6	0x3ed28de6	0.41123885
7	0xbd6da1b7	-0.05801555
8	0x3e6e2224	0.23255211
9	0xbe85d323	-0.26137647
